2016_MIT/HOG_SVM/data/models/svm0505.model_03.npy (npy, 235960 bytes, 1 tensors)

array (column-major) f8 [1, 29485]
-0.016770743432957456 -0.006716910294303138 -0.017588092687350593 0.002850496220265254 0.012160276617418692 0.002585516410587187 -0.0016852238452548624 -0.0002835997166759084
-0.020878024555429402 -0.007252342057747726 -0.0018980606347313023 -0.009450735077894862 0.005307975864709974 0.003222551808227545 0.00483145503569486 0.00326321764011352
0.0032037044488677337 -0.0021074399022734365 -0.0066988457196244695 -0.0024028523677502595 -0.0062966166550143515 0.005587435995586916 0.0017203865123462654 0.010472951559212997
0.0019661695066621127 0.0009888317101222547 -0.0051909561420604025 0.002720427428193002 0.001177430722337619 0.0009267741634745555 0.0036773133244840024 0.023300983396979804
0.004122267598660788 0.0016608636082224744 0.0015733982263815454 0.0018447381539102492 -0.010837355026454247 -0.0011710211412649092 -0.0038199298555983657 0.001688171628360091
0.022059176730783635 0.003773681945023045 0.0007315313149108479 -9.711583899426219e-05 -0.0025841503276922474 -0.013006882723073907 -0.00011171711442118875 -0.003951607766966715
-0.0014251680208076003 0.001963526745153078 0.0007587028772096146 0.0014018932874170149 0.0014107198166117738 0.0017307412682980368 -0.0005701383952849793 0.0001793894279652553
-0.0013939255647939734 -0.003681562014344674 0.01897435477707535 0.004345769311903791 0.0007149426282940146 4.854428588415094e-05 -0.0008974797760920997 -0.005841589175828648
-0.004192128749595172 -0.002943459499303473 -0.002126548626392106 0.007754695299815165 0.0018135685188949452 -0.0005936819893156715 -0.0006794667565340713 -0.003342085467398536
0.0016331836374683885 -0.00024135269388903983 -0.004200002865497985 -0.0020629565849989593 0.002134807994967563 0.0035655631730030658 0.001085326812127749 1.0181475453377159e-05
0.007604385317545181 -0.006634224137505188 -0.0015655093863351168 -0.008492279954185425 0.006022295206036769 0.0054904644874114806 0.005072300065495579 0.003428832156390127
0.003303596705661647 -0.0024546090045216595 -0.0056858912414713214 -0.0018413926924246422 -0.005684847721131264 0.005599603373557932 0.0034083471241681254 0.01034124780174198
0.00207995982422354 0.0009803396106710237 -0.004975923778385251 -0.006727535983820239 -0.0014470450841924368 -0.003503983060237552 0.00855265076825583 0.010300041986865486
0.003757320381982765 0.002066330716215639 0.0005833517538956884 -0.0029584143010418047 -0.01073122842683667 -0.0006086723174914304 -0.002819728660753799 0.0019635955807732544
0.02242023822380354 0.0037001120381486216 0.0007027790322010701 -0.00020800407759064923 -0.0030307057610925972 -0.01213397520448865 0.00025601408894949 -0.0033226182855576394
-0.0009025169937779935 0.002961630102244447 0.0008492058048132719 0.001342453568543826 0.0012528220570779652 0.001684966982911471 -0.008434266822253718 -0.0026829936388673226
-0.006400643782440924 0.004210241634611194 0.006704096069843993 0.0038338192106064013 0.0008336646993761893 0.0009235156198404606 -0.005786631772064576 -0.005710609151127323
-0.004321398889204385 -0.0029459476941883843 -0.002108672164002593 0.01080084044913034 0.0023853872030530133 -0.0004668870735832505 -0.0006849980778761496 -0.003361372144712281
0.0014038413555251899 -0.00034629493006273205 -0.003978129133167009 -0.001832090018902959 0.00382493265453165 0.004101645349579604 0.0011504901050445845 0.00012271365811832285
0.006985191367942542 -0.010815818448340824 -0.0004306591002590749 -0.00032706396236243887 0.0022987316675497456 0.004024489934530312 0.003255294176350272 0.003025542454994752
0.0011558599968823154 -0.013253815247906964 -0.0028294490254210276 -0.00038514036911482677 -0.00461553377167005 0.006213261532045833 0.005970402701729268 0.01084280658328995
0.0022846347291610816 0.0011299155931510287 -0.003899584258527866 -0.006421497690417456 -0.001108016814893256 -0.002885637934680425 0.00914443789169628 0.010935563725160006
0.0035916411044417717 0.0021779619461443603 0.0007498203038287252 -0.002530979802283019 -0.014727473280042293 -0.006975255513893122 -0.007785476726366834 0.005259186991390396
0.008931354035781628 0.0060068413880148275 0.0014435685790111011 0.0006733765537861624 -0.01021894902632202 -0.011555053195645036 0.0012041061982049342 -0.0026639514813655953
-8.766308155171607e-05 0.004679076904126066 0.0011542838068522192 0.0014892214053850716 0.0013739141285792028 0.0015496601972832104 -0.008206996054438873 -0.0025084808603910973
-0.006268448229127159 0.004284247471719571 0.007583639339348396 0.004021349192050014 0.0009155954543366199 0.0009844020471526094 -0.0055049069244077755 -0.005600159684623123
0.0010671446814139278 -0.000158466856342894 0.00746602803910369 -0.0048985283006302525 0.003194732674639081 0.0010248736939895556 0.0010033254559014997 -0.0025717924978179655
0.0016916380092398418 -0.0002793877948059932 -0.003753763577560016 -0.0015511508797049418 0.00628436723525178 0.005568202415379145 0.0015980707501143466 0.0005598003417983347
0.006202896121066422 -0.011003008740640929 -0.0007108485566031974 -0.001100369836568628 0.0023451090759559357 0.006092217772375872 0.003793465291620503 0.003345611004913966
0.0013989478145128337 -0.013436614827465642 -0.006522363069354936 0.00018309879614160246 0.0034776648762197162 0.005852198304897996 -0.003256341503688665 0.0026933718580995965
0.0013458966703464702 0.00128554963876121 -0.006508564466898371 -0.005717106686998065 -0.000244420358003367 -0.0007878078178960415 0.012365279233845587 0.013179340533395081
0.0041176802286997565 0.0024719536846481553 0.00114643948181879 -0.0013820903943292991 -0.013758518924925566 -0.004867072579203825 -0.006799925646035374 0.006984449763096329
00000000: 59f0 4b8a 592c 91bf a908 b5e0 3083 7bbf
00000010: 7893 90eb 9c02 92bf 369f 6381 ec59 673f
00000020: 7d98 0eb3 7ce7 883f 84e1 a78d 382e 653f
00000030: b1d6 5053 579c 5bbf fd7f 1e82 0396 32bf
00000040: fbbf ae82 0c61 95bf 09a4 51bf a1b4 7dbf
00000050: 001a 8716 0b19 5fbf 4a68 a930 e85a 83bf
00000060: 6d3f f3eb d0bd 753f 6137 0854 2e66 6a3f
00000070: ae2c edd5 25ca 733f 2898 68a1 76bb 6a3f
00000080: da9b afba a73e 6a3f ba70 ac2e 9f43 61bf
00000090: 3479 96b4 3f70 7bbf c474 c58a 25af 63bf
000000a0: 7e61 bd29 7bca 79bf bba1 e9ed d9e2 763f
000000b0: 79ff a5f3 d22f 5c3f 74ea 83c3 d772 853f
000000c0: 721d 5837 5b1b 603f de5a ccf6 7533 503f
000000d0: d187 d7ad 1c43 75bf f634 ba5a 2649 663f
000000e0: 1919 879c 804a 533f e404 885c 585e 4e3f
000000f0: 6ddd e78e e21f 6e3f 1761 9e86 36dc 973f
00000100: 3282 58c8 82e2 703f d0ff 58b8 2a36 5b3f
00000110: 4fd5 417b 4fc7 593f 5749 9b82 6439 5e3f
00000120: 8f62 4f2b e531 86bf 794e 4c60 9e2f 53bf
00000130: 779c b039 f94a 6fbf cc0f c47b b4a8 5b3f
00000140: 46a6 8a4a ae96 963f 1c99 4211 fce9 6e3f
00000150: c0d2 6989 87f8 473f 4495 dc68 5575 19bf
00000160: 4d00 a724 5b2b 65bf b21b 593f 5aa3 8abf
00000170: 0e8b 4f69 3549 1dbf a809 03a2 8f2f 70bf
00000180: d365 9a82 9659 57bf cfd6 f764 d015 603f
00000190: 2671 c205 76dc 483f dfa1 9a74 f7f7 563f
000001a0: d683 79de fc1c 573f 1d97 4a49 415b 5c3f
000001b0: 5d58 87e1 aaae 42bf f750 e573 4f83 273f
000001c0: 63b1 af2d 8cd6 56bf 18d0 648e cb28 6ebf
000001d0: 09c4 eb64 036e 933f 0d20 2191 decc 713f
000001e0: a841 809a 5f6d 473f 1d6a 55f6 8073 093f
000001f0: 7ee7 c024 9b68 4dbf 6c39 78a7 59ed 77bf
00000200: f605 15fe c32b 71bf 89e6 2bc9 e11c 68bf
00000210: 75f9 b719 b26b 61bf 501b 402b 63c3 7f3f
00000220: 8dc8 925e a8b6 5d3f 1015 3a5d 2a74 43bf
00000230: dd8b bfbf c743 46bf cba0 0d79 dc60 6bbf
00000240: e728 ec93 11c2 5a3f 72f1 a6da 73a2 2fbf
00000250: beeb 34af 0534 71bf a6b5 1962 55e6 60bf
00000260: f226 b150 047d 613f 242d 0927 8735 6d3f
00000270: f4c6 77ca 30c8 513f 8cd2 c354 235a e53e
00000280: 26ae eba3 c625 7f3f b758 47fb 7c2c 7bbf
00000290: 62bf 6ae7 38a6 59bf b5a5 5f85 6664 81bf
000002a0: 51fe 4e8f d5aa 783f 49cd 9c56 2b7d 763f
000002b0: 3b4d 592e b1c6 743f 1a95 343f c816 6c3f
000002c0: 6270 ebf9 2410 6b3f 05b0 c32c b01b 64bf
000002d0: 6947 e4ce 164a 77bf 7ed9 2759 5c2b 5ebf
000002e0: c650 b8b0 fe48 77bf 1392 c215 9cef 763f
000002f0: bea1 d06d d2eb 6b3f 92d3 ddc8 ca2d 853f
00000300: 794d 81ed fd09 613f 3d8a 46a4 d70f 503f
00000310: cf2f 545e a261 74bf 6ede 8730 558e 7bbf
00000320: 7715 ffd3 58b5 57bf bd5c c894 62b4 6cbf
00000330: 7909 c05a 0d84 813f ef1d d93b 3018 853f
00000340: 4da2 2805 acc7 6e3f ede9 29db 68ed 603f
00000350: 61f4 3e5a 821d 433f d6c6 7895 3e3c 68bf
00000360: a704 1d19 41fa 85bf 2329 4bd9 e9f1 43bf
00000370: 6f81 354c 6619 67bf 90e9 a959 f515 603f
00000380: d851 c2b7 54f5 963f 7096 4086 b24f 6e3f
00000390: 4cc4 d47a 5607 473f 5519 df6b 7543 2bbf
000003a0: 790c 16c4 d9d3 68bf f6d8 6395 b2d9 88bf
000003b0: 53a8 ac23 34c7 303f 9037 f41b 0938 6bbf
000003c0: e550 767c dc92 4dbf acda d20d fd42 683f
000003d0: 4f2f 6294 a7d3 4b3f ab40 178b a8fe 553f
000003e0: 73a7 d270 b786 543f c24e 8885 439b 5b3f
000003f0: 97aa 5621 fc45 81bf 92e0 e53d a5fa 65bf
00000400: 3abc 80bb 8f37 7abf b906 1022 c23e 713f
00000410: 6a55 e815 c175 7b3f ad49 1b04 1a68 6f3f
00000420: 57b4 504f 4951 4b3f a642 39b1 0243 4e3f
00000430: 4cb0 7023 b9b3 77bf 8e93 b5f8 0164 77bf
00000440: 2504 6fae 50b3 71bf 8f8f 12a0 1922 68bf
00000450: 3ba1 6fbf 3446 61bf ca93 fc43 c01e 863f
00000460: cd27 d000 858a 633f 0e5a 43b6 1099 3ebf
00000470: 4484 d02b 2e72 46bf 9697 cced 4e89 6bbf
00000480: 26fa 7c2d 2300 573f fe6c 3e66 ddb1 36bf
00000490: a862 6be8 5e4b 70bf 49a2 baad 5704 5ebf
000004a0: f6c3 2315 7755 6f3f a204 2e0a e3cc 703f
000004b0: efd0 0858 81d9 523f 60de f94b 9615 203f
000004c0: a3b1 b407 819c 7c3f 56eb 1e94 9a26 86bf
000004d0: baa7 57c0 4239 3cbf c3dc a405 396f 35bf
000004e0: 9673 b32a cad4 623f 0623 6eca fb7b 703f
000004f0: dd50 d7c0 d8aa 6a3f f617 b3bc 05c9 683f
00000500: a2ce a938 07f0 523f 9abf 4bf8 d024 8bbf
00000510: e8cb f4e0 c82d 67bf e8ed 2a4a 953d 39bf
00000520: 2d81 a5e9 bce7 72bf 0d5d 4eb1 1373 793f
00000530: bce7 90c5 6b74 783f 7d6d 60dd c034 863f
00000540: 15df 3dee 39b7 623f 58cc 44a1 3583 523f
00000550: e6cb 775b 05f2 6fbf 8e9c 25a9 6d4d 7abf
00000560: 0cc6 effe 5b27 52bf dc71 d711 9fa3 67bf
00000570: 012a 7bad 51ba 823f 75ca 8084 6265 863f
00000580: 0a39 a4a2 376c 6d3f b975 946a 84d7 613f
00000590: 08af 66d7 f291 483f 1dd8 486f d9bb 64bf
000005a0: b455 b900 7029 8ebf 10bf 03e5 1592 7cbf
000005b0: 58b7 c6fe a9e3 7fbf 8ce9 1a42 a88a 753f
000005c0: 0f02 f10b 9a4a 823f 4041 0535 a19a 783f
000005d0: 9b58 87f5 c3a6 573f 1e3b 6123 b110 463f
000005e0: f9ba f01e aced 84bf 9f74 a1fc 2caa 87bf
000005f0: fc38 802f 63ba 533f 5af6 b20f b6d2 65bf
00000600: 4e9d f845 f8fa 16bf 0b84 7524 5e2a 733f
00000610: cfcd d8cc 6ae9 523f 8071 e34e 3f66 583f
00000620: 6e11 fc0f 9d82 563f 39ee 80f7 be63 593f
00000630: 05bd 375d d4ce 80bf bcb6 4168 aa8c 64bf
00000640: 5298 40c2 f1ac 79bf 40cf 76ec 5b8c 713f
00000650: ac91 27af 0510 7f3f 171b 40b4 b078 703f
00000660: 2ce4 3044 9200 4e3f fb0c 50a6 e120 503f
00000670: 1f60 5333 508c 76bf f953 2a6b 31f0 76bf
00000680: b0f8 6ee0 ed7b 513f ce0d 55ee 43c5 24bf
00000690: 0ebd 24a4 b294 7e3f 3c86 98ad 7a10 74bf
000006a0: d4d9 6c0b d72b 6a3f bfc4 e2bf a1ca 503f
000006b0: 4f45 4d81 4070 503f 747e 7295 7011 65bf
000006c0: 4769 497b 3eb7 5b3f 2b42 0c71 594f 32bf
000006d0: 7560 ae79 36c0 6ebf 5fea 2a93 ff69 59bf
000006e0: 45fb 05fc a2bd 793f 0351 58f4 aece 763f
000006f0: a49a f066 cb2e 5a3f da26 8514 f257 423f
00000700: a2fc af3f 3568 793f 66d8 96d5 be88 86bf
00000710: 1e58 c9a6 074b 47bf d450 8a1d 4907 52bf
00000720: a454 2dd9 0c36 633f e4bb 7a41 27f4 783f
00000730: 0472 b62b 7913 6f3f 5662 3d3b 4168 6b3f
00000740: 125b 2dc7 9ceb 563f 93f7 05ea a784 8bbf
00000750: f951 3581 31b7 7abf d569 c7ae c6ff 273f
00000760: 272d 1d1d 317d 6c3f dd94 4485 79f8 773f
00000770: b416 6a08 0bad 6abf 0cf7 7c01 6910 663f
00000780: 382e b58b 190d 563f 0bad f969 fc0f 553f
00000790: 5bc0 7778 b9a8 7abf db71 f923 d26a 77bf
000007a0: a19b b071 b104 30bf 6961 1d68 9cd0 49bf
000007b0: 8f7b 52af f752 893f 7b19 9724 c5fd 8a3f
000007c0: 15b3 ae5e b3dd 703f 1d05 7307 1040 643f
000007d0: b547 3305 84c8 523f 18f7 cc42 e8a4 56bf
000007e0: 5974 9726 6d2d 8cbf 8107 e1d8 7eef 73bf
000007f0: fd3f 3d24 3dda 7bbf 9444 02f5 b99b 7c3f
