Mul_Obj_Trackery/model_hub/svm/Rhand_with_tools.model_04.npy (npy, 2048 bytes, 1 tensors)

array f8 [1, 246]
0	0x3f847ae147ae147b	0.01
1	0x3f5c85f4aaf6ea9c	0.0017409219106940049
2	0x3f7d172ea678e35a	0.007102186420120693
3	0x3f7532cd969a62c0	0.005175402716894595
4	0x3f41456a356bf81c	0.0005270737263740641
5	0x3f847ae147ae147b	0.01
6	0x3f78ae046f0c9e84	0.00602533084819579
7	0x3f684077f3f8c918	0.0029604285080263686
8	0x3f5844b98a3c7e18	0.0014812290109559364
9	0x3f4f6bbbba3bbf74	0.0009588877332742233
10	0x3f760deac3ecf6d0	0.005384366085136441
11	0x3f5fdf697f065b54	0.0019453554378736264
12	0x3f847ae147ae147b	0.01
13	0x3f77f81adf0eb545	0.005851845708929664
14	0x3f6a4780559b242c	0.0032079226046773015
15	0x3f7325c61e168c0e	0.004674695870025237
16	0x3f6f14672799c975	0.003793908571247668
17	0x3f7c057ab750e2ba	0.006841163024596747
18	0x3f51c595bca02de5	0.0010847055696129257
19	0x3f847ae147ae147b	0.01
20	0x3f817177188d472a	0.008517198979152225
21	0x3f5f29bc6e31f953	0.0019020404950250327
22	0x3f81801c44befd44	0.008545132492030157
23	0x3f72b4e52d512844	0.004567046377880916
24	0x3f847ae147ae147b	0.01
25	0x3f7235ecfff1aa72	0.004445958881755462
26	0x3f847ae147ae147b	0.01
27	0x3f637143652a5efc	0.002373344069677928
28	0x3f737f97c848215c	0.004760353946501841
29	0x3f59b7e2601d1f7f	0.0015697203347872777
30	0x3f5c9dfdba682862	0.0017466523946745517
31	0x3f744ef0fc525332	0.004958096838113589
32	0x3f702a47b5fd43d0	0.003946571465193352
33	0x3f62e8e129d8ee5a	0.0023083112453415157
34	0x3f77e13b2065da7f	0.005830031359770004
35	0x3f6052cbc4b15723	0.001992605195065959
36	0x3f796acd4cb56b91	0.006205369903308348
37	0x3f3ed8af3e8d8c2e	0.0004706790774006733
38	0x3f735ce176a6ecf1	0.004727249829041145
39	0x3f6d7b12a20f1798	0.003598724739705749
40	0x3f6550490d8babd1	0.002601759606809286
41	0x3f515afd210a56a3	0.0010592910731807368
42	0x3f70ee05b41ef134	0.004133245734859781
43	0x3f659e3cd27b964c	0.002638930123668703
44	0x3f71edb7a3b5bd3f	0.004377095548405762
45	0x3f7f3d20dcc6f978	0.007626655930322072
46	0x3f847ae147ae147b	0.01
47	0x3f847ae147ae147b	0.01
48	0x3f7a34189bedae91	0.0063973389904778
49	0x3f630a1a7487e9f8	0.002324153585729901
50	0x3f77139d6631dc3a	0.005633940544718158
51	0x3f50a3d416742cae	0.0010156222504658463
52	0x3f70c65293cf3e27	0.004095385139364838
53	0x3f68bd94667cfd0c	0.0030200861400825393
54	0x3f51ee66af38a1fe	0.0010944369104298741
55	0x3f70483442f5e166	0.003975109240279861
56	0x3f5bcfaa4768e302	0.0016974604492487337
57	0x3f847ae147ae147b	0.01
58	0x3f7a8cd64b6359f5	0.006481968963461861
59	0x3f541c20de039094	0.0012274094552191849
60	0x3f62c1d1c61897c0	0.0022896859307079687
61	0x3f59737742b88e81	0.001553408112962368
62	0x3f5d528dffa42b98	0.0017897021012369448
63	0x3f847ae147ae147b	0.01
64	0x3f847ae147ae147b	0.01
65	0x3f5859b5e9729ae1	0.0014862324222037415
66	0x3f83e9884e0bdafa	0.00972277153185307
67	0x3f6339acc7e6be8d	0.0023468374849569596
68	0x3f796fa1f8246c2a	0.006209976856804503
69	0x3f72a9af98748175	0.004556356353788584
70	0x3f40f07e2d5f8579	0.0005169502353476316
71	0x3f66800e96111c26	0.0027466092001620255
72	0x3f724c2b67057a19	0.004467172184688306
73	0x3f607f996cc95ccd	0.002013969095326118
74	0x3f7dbdb1bed97455	0.007260984724408355
75	0x3f4423121afef49a	0.000614532318642741
76	0x3f8285a2a18fd94e	0.009043951564291188
77	0x3f7718f0f19c4132	0.0056390201441590005
78	0x3f6317ee8942f8fd	0.002330747500393858
79	0x3f660cf2ef658dc4	0.002691721422864753
80	0x3f531c500dc4b2d7	0.0011664182448597926
81	0x3f7175c75db6e144	0.004262713216512563
82	0x3f729e51018db748	0.004545513563113897
83	0x3f3b1d05f6d0b410	0.00041371722801636455
84	0x3f56729614ba6a95	0.001370092929312482
85	0x3f4c19750702447a	0.0008575269148584218
86	0x3f699401a37892d8	0.003122332763967211
87	0x3f847ae147ae147b	0.01
88	0x3f847ae147ae147b	0.01
89	0x3f50a3c2ee782ad6	0.0010156062725196666
90	0x3f742d8a79ab9ffa	0.004926243704836958
91	0x3f711d188d319858	0.004178138641782146
92	0x3f73059722fbc8af	0.004644003274494476
93	0x3f65cbe9de1ee7c4	0.002660710118075978
94	0x3f6d219e671fe1bd	0.003556069736984051
95	0x3f82815c20c7eca4	0.009035796881099074
96	0x3f6008d2f975b196	0.0019573326678054654
97	0x3f7016b678d559ac	0.003927910596152644
98	0x3f72bc708d63acf1	0.004574241311483749
99	0x3f73fd0d7d54ecbc	0.004880001729641478
100	0x3f5f7fbb0bbf28ee	0.0019225432033516637
101	0x3f803e445af781a8	0.007931264902197935
102	0x3f789ba471679c04	0.006007807116907852
103	0x3f51a3c5aa93efa8	0.0010766439757494504
104	0x3f5922da960e79e0	0.0015341887121632578
105	0x3f3982ba95236094	0.00038926177252341623
106	0x3f7d98cb574a087c	0.0072257941252492595
107	0x3f6db4af1f394018	0.0036261959410595172
108	0x3f53f24bf4a43cee	0.0012174360040864657
109	0x3f4f98526e627d6a	0.0009642031189009252
110	0x3f5f2ccdcaf05ba8	0.001902771920645677
111	0x3f4302e413ba8a01	0.0005801786096138463
112	0x3f847ae147ae147b	0.01
113	0x3f83ed321a868ab2	0.00972975867700163
114	0x3f62da493f647040	0.002301352559824138
115	0x3f78bbd22071d21a	0.006038494880261891
116	0x3f62e2aacf2314d6	0.0023053489795495747
117	0x3f6bb7a4e9f95b1a	0.00338346681364089
118	0x3f50b5c12ba561cf	0.0010198961668575928
119	0x3f847ae147ae147b	0.01
120	0x3f52288b2652d222	0.0011082991489220835
121	0x3f7336534288e50f	0.004690480455388681
122	0x3f62f8db20c6226a	0.0023159293979840194
123	0x3f844e89ae3c7cc0	0.009915423993844263
124	0x3f67d170aa163dec	0.0029074860073661137
125	0x3f6583e51d493651	0.002626368989047369
126	0x3f5d5e244b442cba	0.0017924646791154645
127	0x3f6cf585e2652a2a	0.003535043232806308
128	0x3f5d13b5ab334c0a	0.0017747186764622857
129	0x3f79c9fb9d48e033	0.006296141499255769
130	0x3f5825ffbb5e56a9	0.0014739034063259526
131	0x3f10817e148a69f0	6.296474487969112e-05
132	0x3f80521c046dcddb	0.007969111333045944
133	0x3f61818b02364d77	0.002136966229679234
134	0x3f847ae147ae147b	0.01
135	0x3f66a3663e4cbbea	0.0027634617748826156
136	0x3f842467b253f9e2	0.009835062150611532
137	0x3f62d07f8670ab84	0.002296685288020796
138	0x3f701bd4f1a61fb5	0.003932792484540861
139	0x3f63505561426637	0.002357641942649004
140	0x3f63f3245f65135c	0.002435275116257447
141	0x3f4f53ea61e3b2d3	0.0009560484357088124
142	0x3f689237d696a756	0.002999409731917628
143	0x3f77a06accd5cbff	0.005768220127140288
144	0x3f761efa9f9a874d	0.005400637624605254
145	0x3f4ab006b1641e5d	0.0008144409828511713
146	0x3f7279951a22c62f	0.004510481290866105
147	0x3f506e224f6eef8c	0.001002820497645526
148	0x3f6d7526156380ba	0.003595899946148587
149	0x3f7397d536d6aecf	0.004783470981617645
150	0x3f710f364aabf675	0.004164897992038887
151	0x3f847ae147ae147b	0.01
152	0x3f5aa017c5348706	0.001625083173003751
153	0x3f77f5bc5e5a8b6a	0.005849586310122537
154	0x3f69b8808c35da08	0.0031397352883530995
155	0x3f721be563378b5c	0.004421134991818256
156	0x3f590f5050f77194	0.0015295299852971832
157	0x3f7c0adab8f27c4c	0.006846289047785236
158	0x3f5b328b35b33f6e	0.0016599997969030905
159	0x3f80b8aa933ee389	0.008164723032551684
160	0x3f5b3ef412f0e85b	0.001662958482269625
161	0x3f81f75d2beda268	0.008772590544780814
162	0x3f57d6281778b9b8	0.0014548675079698436
163	0x3f847ae147ae147b	0.01
164	0x3f301c1165defc32	0.0002458136058258203
165	0x3f6108be9604c312	0.002079365003872965
166	0x3f847ae147ae147b	0.01
167	0x3f7a5454560ade74	0.006428079069045734
168	0x3f847ae147ae147b	0.01
169	0x3f5c99f2bbdbaf90	0.0017456884810895558
170	0x3f847ae147ae147b	0.01
171	0xbf847ae147ae147b	-0.01
172	0xbf847ae147ae147b	-0.01
173	0xbf847ae147ae147b	-0.01
174	0xbf847ae147ae147b	-0.01
175	0xbf847ae147ae147b	-0.01
176	0xbf847ae147ae147b	-0.01
177	0xbf847ae147ae147b	-0.01
178	0xbf847ae147ae147b	-0.01
179	0xbf847ae147ae147b	-0.01
180	0xbf847ae147ae147b	-0.01
181	0xbf847ae147ae147b	-0.01
182	0xbf847ae147ae147b	-0.01
183	0xbf847ae147ae147b	-0.01
184	0xbf847ae147ae147b	-0.01
185	0xbf847ae147ae147b	-0.01
186	0xbf847ae147ae147b	-0.01
187	0xbf847ae147ae147b	-0.01
188	0xbf847ae147ae147b	-0.01
189	0xbf847ae147ae147b	-0.01
190	0xbf847ae147ae147b	-0.01
191	0xbf847ae147ae147b	-0.01
192	0xbf847ae147ae147b	-0.01
193	0xbf847ae147ae147b	-0.01
194	0xbf847ae147ae147b	-0.01
195	0xbf847ae147ae147b	-0.01
196	0xbf847ae147ae147b	-0.01
197	0xbf847ae147ae147b	-0.01
198	0xbf847ae147ae147b	-0.01
199	0xbf847ae147ae147b	-0.01
200	0xbf847ae147ae147b	-0.01
201	0xbf847ae147ae147b	-0.01
202	0xbf847ae147ae147b	-0.01
203	0xbf847ae147ae147b	-0.01
204	0xbf847ae147ae147b	-0.01
205	0xbf847ae147ae147b	-0.01
206	0xbf847ae147ae147b	-0.01
207	0xbf847ae147ae147b	-0.01
208	0xbf847ae147ae147b	-0.01
209	0xbf847ae147ae147b	-0.01
210	0xbf847ae147ae147b	-0.01
211	0xbf847ae147ae147b	-0.01
212	0xbf847ae147ae147b	-0.01
213	0xbf847ae147ae147b	-0.01
214	0xbf847ae147ae147b	-0.01
215	0xbf847ae147ae147b	-0.01
216	0xbf847ae147ae147b	-0.01
217	0xbf847ae147ae147b	-0.01
218	0xbf847ae147ae147b	-0.01
219	0xbf847ae147ae147b	-0.01
220	0xbf847ae147ae147b	-0.01
221	0xbf847ae147ae147b	-0.01
222	0xbf847ae147ae147b	-0.01
223	0xbf847ae147ae147b	-0.01
224	0xbf847ae147ae147b	-0.01
225	0xbf847ae147ae147b	-0.01
226	0xbf847ae147ae147b	-0.01
227	0xbf847ae147ae147b	-0.01
228	0xbf847ae147ae147b	-0.01
229	0xbf847ae147ae147b	-0.01
230	0xbf847ae147ae147b	-0.01
231	0xbf847ae147ae147b	-0.01
232	0xbf847ae147ae147b	-0.01
233	0xbf847ae147ae147b	-0.01
234	0xbf847ae147ae147b	-0.01
235	0xbf847ae147ae147b	-0.01
236	0xbf847ae147ae147b	-0.01
237	0xbf847ae147ae147b	-0.01
238	0xbf847ae147ae147b	-0.01
239	0xbf847ae147ae147b	-0.01
240	0xbf847ae147ae147b	-0.01
241	0xbf847ae147ae147b	-0.01
242	0xbf847ae147ae147b	-0.01
243	0xbf847ae147ae147b	-0.01
244	0xbf847ae147ae147b	-0.01
245	0xbf847ae147ae147b	-0.01
