Mul_Obj_Trackery/model_hub/svm/RHand_with_SD.model_03.npy (npy, 1384 bytes, 1 tensors)

array f8 [1, 163]
00000000: 7b14 ae47 e17a 84bf 802d 9498 cb63 71bf
00000010: c7e0 a89c 6848 7cbf aa77 748b e24c 6ebf
00000020: de29 c346 b288 53bf 0013 ff4f 895a 44bf
00000030: 2a36 4ca3 a05c 7ebf 0992 d794 7a51 61bf
00000040: 7b14 ae47 e17a 84bf 26d9 1859 90a8 46bf
00000050: 3110 115a 0956 60bf 10d1 a812 dc5f 26bf
00000060: 7b14 ae47 e17a 84bf 1235 5050 76a6 56bf
00000070: 7b14 ae47 e17a 84bf 7b14 ae47 e17a 84bf
00000080: 31b8 a261 5366 80bf 7b14 ae47 e17a 84bf
00000090: 7b14 ae47 e17a 84bf 505f ceb2 6833 69bf
000000a0: 7b14 ae47 e17a 84bf 3328 40c1 7567 83bf
000000b0: 5add 44c4 a3ba 7fbf 9f62 0610 4a55 7dbf
000000c0: 7b14 ae47 e17a 84bf e695 5df4 6416 51bf
000000d0: 0066 fb85 635b 77bf 25e7 5a46 c5b3 6fbf
000000e0: 7890 acd0 ffc1 30bf 7b14 ae47 e17a 84bf
000000f0: 702a d3a1 7f0b 41bf 7b14 ae47 e17a 84bf
00000100: a83c 81ff eb00 76bf 7b14 ae47 e17a 84bf
00000110: 7b14 ae47 e17a 84bf bce0 a636 0fb8 81bf
00000120: dbde 2e9a 8539 52bf 7b14 ae47 e17a 84bf
00000130: 0412 c0ff 8bc8 61bf c2ab 730b 6a7b 4cbf
00000140: 1348 d60d 8a43 74bf 7b14 ae47 e17a 84bf
00000150: 38a5 f0fa d797 82bf 7b14 ae47 e17a 84bf
00000160: adf1 3e0b 0356 63bf 0be0 77fc 889f 7dbf
00000170: 7b14 ae47 e17a 84bf 3b2f 5197 5db5 70bf
00000180: 7b14 ae47 e17a 84bf f422 aa6c 8a13 75bf
00000190: 4e34 0ed0 c8b4 65bf 7b14 ae47 e17a 84bf
000001a0: 5669 f27d 383b 6fbf 3c64 00a4 60f7 47bf
000001b0: 2bf8 5c4d d226 62bf 7b14 ae47 e17a 84bf
000001c0: c89f e2ba a351 83bf c01e 97e9 71ab 74bf
000001d0: 04b1 23f5 f9c6 67bf 35b0 a8b2 276f 67bf
000001e0: a2fc fc5c 7afe 65bf 4ef9 f435 0e5c 7cbf
000001f0: 57ac cb4f 92ca 69bf d691 c825 73ac 66bf
00000200: 504e 8a89 872c 70bf 7b14 ae47 e17a 84bf
00000210: 5ba2 7449 2203 80bf 3c97 f24a 4c0e 5bbf
00000220: ea6b 81b8 3746 47bf f79e bc2d e4d6 77bf
00000230: 2bc0 2a3d eea4 65bf 3beb 152c 11db 66bf
00000240: 5a45 2d4c 766e 76bf 8898 e08d 55fd 52bf
00000250: 38a0 a0a4 6c8c 51bf cfb4 f5f0 b119 75bf
00000260: 1011 b253 3a2a 22bf 8c6f 3044 47fc 50bf
00000270: 46a9 b587 b3a3 78bf f0e1 05e1 de22 65bf
00000280: 0583 00f6 584b 74bf 8c55 70c7 df74 49bf
00000290: 149f 32a1 674f 3dbf d87c ec6b 67e1 6cbf
000002a0: 73a6 5de8 69a7 6bbf 4441 badd b738 5bbf
000002b0: 7b14 ae47 e17a 84bf 8180 30fd 0db0 73bf
000002c0: 7b14 ae47 e17a 84bf 40a2 b95b e1ea 5abf
000002d0: 59cc 07a2 b082 7fbf 97a7 0fd1 3ed8 4cbf
000002e0: 8b18 e3cd 156a 73bf c4e9 f0d8 ddcb 67bf
000002f0: 4d90 ba4a bcc4 7ebf fbd1 8e04 5d4e 68bf
00000300: 3cc7 7282 ab0c 6ebf 3fce 7c8f 5d9e 78bf
00000310: 0758 612a 93c3 83bf 7e98 82a0 af46 73bf
00000320: a214 8dd9 9a39 73bf 1153 058a e4e1 6abf
00000330: 2602 c24a 4995 58bf 7a8f ced3 1cd7 7dbf
00000340: 3082 b1c4 d6b6 59bf 7240 69b9 272f 53bf
00000350: 7422 7a43 caea 71bf de28 4d7b ad33 66bf
00000360: 7b14 ae47 e17a 843f 7b14 ae47 e17a 843f
00000370: 7b14 ae47 e17a 843f 7b14 ae47 e17a 843f
00000380: 7b14 ae47 e17a 843f 7b14 ae47 e17a 843f
00000390: 7b14 ae47 e17a 843f 7b14 ae47 e17a 843f
000003a0: 7b14 ae47 e17a 843f 7b14 ae47 e17a 843f
000003b0: 7b14 ae47 e17a 843f 7b14 ae47 e17a 843f
000003c0: 7b14 ae47 e17a 843f 7b14 ae47 e17a 843f
000003d0: 7b14 ae47 e17a 843f 7b14 ae47 e17a 843f
000003e0: 7b14 ae47 e17a 843f 7b14 ae47 e17a 843f
000003f0: 7b14 ae47 e17a 843f 7b14 ae47 e17a 843f
00000400: 7b14 ae47 e17a 843f 7b14 ae47 e17a 843f
00000410: 7b14 ae47 e17a 843f 7b14 ae47 e17a 843f
00000420: 7b14 ae47 e17a 843f 7b14 ae47 e17a 843f
00000430: 7b14 ae47 e17a 843f 7b14 ae47 e17a 843f
00000440: 7b14 ae47 e17a 843f 7b14 ae47 e17a 843f
00000450: 7b14 ae47 e17a 843f 7b14 ae47 e17a 843f
00000460: 7b14 ae47 e17a 843f 7b14 ae47 e17a 843f
00000470: 7b14 ae47 e17a 843f 7b14 ae47 e17a 843f
00000480: 7b14 ae47 e17a 843f 7b14 ae47 e17a 843f
00000490: 7b14 ae47 e17a 843f 7b14 ae47 e17a 843f
000004a0: 7b14 ae47 e17a 843f 7b14 ae47 e17a 843f
000004b0: 7b14 ae47 e17a 843f 7b14 ae47 e17a 843f
000004c0: 7b14 ae47 e17a 843f 7b14 ae47 e17a 843f
000004d0: 7b14 ae47 e17a 843f 7b14 ae47 e17a 843f
000004e0: 7b14 ae47 e17a 843f 7b14 ae47 e17a 843f
000004f0: 7b14 ae47 e17a 843f 7b14 ae47 e17a 843f
00000500: 7b14 ae47 e17a 843f 7b14 ae47 e17a 843f
00000510: 7b14 ae47 e17a 843f
-0.01 -0.00424556283656885 -0.006904991760670671 -0.0036987709714954757 -0.0011922589283580513 -0.0006211443396685057 -0.007412555209851438 -0.002114047447991267
-0.01 -0.0006914810966865178 -0.0019941504147329638 -0.0001707035201704639 -0.01 -0.001382461109872783 -0.01 -0.01
-0.008007670800307039 -0.01 -0.01 -0.0030762715236497887 -0.01 -0.009474678001442615 -0.007746352876260099 -0.00716141634657022
-0.01 -0.0010429368862444554 -0.0057023894912275885 -0.003869900991813407 -0.00025570388304375176 -0.01 -0.0005201695636512637 -0.01
-0.005371972911304791 -0.01 -0.01 -0.008651846747725116 -0.0011123470983260195 -0.01 -0.002170823512644528 -0.0008692043110419755
-0.0049472229706158 -0.01 -0.009078681321698853 -0.01 -0.0023603496028654276 -0.0072322226546859365 -0.01 -0.004079213705221292
-0.01 -0.0051455886083508935 -0.0026496812938093034 -0.01 -0.0038124183043467914 -0.0007313939931946688 -0.002215777155384143 -0.01
-0.009433058872971758 -0.005046315165095627 -0.0029024965270904052 -0.0028606200551362323 -0.002684821119970219 -0.0069237284763502115 -0.003148351445238211 -0.0027677773453140637
-0.003948716585586334 -0.01 -0.00781847750347813 -0.0016513581320309464 -0.0007102748941280022 -0.005820170710457032 -0.0026421216110392907 -0.002790006198379128
-0.005476438617578816 -0.001159032391578248 -0.0010710774390734323 -0.005151457865719424 -0.0001385875892517892 -0.0010367103539072635 -0.006015492715372444 -0.0025801041703596914
-0.004954669479076972 -0.0007768719359570338 -0.00044723777791454253 -0.0035254497482949225 -0.003375727511344456 -0.0016614718978510004 -0.01 -0.0048065706678529505
-0.01 -0.0016429138912831404 -0.007692995045078887 -0.0008802706453228001 -0.004739842579686858 -0.0029048283536472225 -0.00751184035803838 -0.002967054057501748
-0.00366815088235564 -0.006010404082008202 -0.00965037320217378 -0.004706083338680609 -0.004693608171526227 -0.0032815421729232093 -0.0015004363768015365 -0.007285225493351416
-0.0015694711062438464 -0.00117091063806998 -0.004374303905600219 -0.0027101887048149717 0.01 0.01 0.01 0.01
0.01 0.01 0.01 0.01 0.01 0.01 0.01 0.01
0.01 0.01 0.01 0.01 0.01 0.01 0.01 0.01
0.01 0.01 0.01 0.01 0.01 0.01 0.01 0.01
0.01 0.01 0.01 0.01 0.01 0.01 0.01 0.01
0.01 0.01 0.01 0.01 0.01 0.01 0.01 0.01
0.01 0.01 0.01 0.01 0.01 0.01 0.01 0.01
0.01 0.01 0.01
